checkpoints/best_nnakf.pth (torch, 210933 bytes, 13 tensors)

Q_tilde f4 [10, 4, 4]
000000 3d 05 60 3f ca 56 ac 3f f2 98 a5 bf 5d d1 d7 c0
       0.87507993 1.3463986 -1.29373 -6.744307
000010 93 8c f7 c0 1f b5 d1 40 23 fa 00 bd 04 b5 86 c0
       -7.73591 6.5533595 -0.03148855 -4.2095966
000020 c8 20 5d be 57 98 b0 bc 06 1d a6 bd 2b 51 e0 be
       -0.21594536 -0.021557016 -0.081110045 -0.43811926
000030 5a 0d cd 40 64 25 97 3f df f9 51 3f b4 cd 6c 40
       6.40788 1.1808286 0.820219 3.7000551
000040 5c 0c 60 3f cc 7f ac 3f 0c c3 a5 bf b7 e8 d7 c0
       0.8751886 1.34765 -1.2950149 -6.7471576
000050 4a a8 f7 c0 eb 01 d2 40 ee 1e f2 bc 08 1e 87 c0
       -7.739293 6.562734 -0.029555764 -4.222416
000060 ce 0f 5d be 6a 18 aa bc 3e 1f a6 bd 0a 5a e0 be
       -0.2158806 -0.020763595 -0.08111428 -0.43818694
000070 9d 6e cd 40 63 b4 98 3f 87 5a 54 3f 0f f0 6d 40
       6.4197526 1.193005 0.82950634 3.717777
000080 88 ec 5f 3f 77 1b ac 3f 31 42 a5 bf 67 a0 d7 c0
       0.87470293 1.3445882 -1.2910825 -6.7383304
000090 40 5c f7 c0 08 ef d0 40 aa ce 15 bd 60 a2 85 c0
       -7.730011 6.5291786 -0.036574043 -4.176071
0000a0 d6 53 5d be 08 a0 b5 bc ba c7 a5 bd 42 47 e0 be
       -0.21614012 -0.022171035 -0.080947354 -0.43804365
0000b0 0e dd cb 40 2a 16 92 3f 7f 65 4b 3f f2 8a 6a 40
       6.370734 1.1413014 0.79451746 3.6647305
0000c0 0c 26 60 3f b1 c0 ac 3f b1 20 a6 bf 85 17 d8 c0
       0.87558055 1.3496305 -1.2978727 -6.752871
0000d0 58 cf f7 c0 f9 70 d2 40 0a 4d d1 bc 48 d9 87 c0
       -7.7440605 6.5762906 -0.02554943 -4.2452736
0000e0 28 ba 5c be 36 d2 a9 bc 24 ab a6 bd fe 67 e0 be
       -0.21555388 -0.02073012 -0.08138111 -0.4382934
0000f0 fd 7c ce 40 38 ac 9a 3f 65 e9 59 3f 75 17 6c 40
       6.4527574 1.2083807 0.85121757 3.6889317
000100 19 22 60 3f 57 77 ac 3f a7 ca a5 bf 4f ea d7 c0
       0.8755203 1.347392 -1.295247 -6.747352
000110 e3 ad f7 c0 60 24 d2 40 c1 44 eb bc 26 45 87 c0
       -7.7399764 6.5669403 -0.028719308 -4.227191
000120 92 1d 5d be 75 a4 ac bc d0 35 a6 bd 38 65 e0 be
       -0.21593311 -0.021074513 -0.08115733 -0.43827224
000130 d4 88 cd 40 30 82 9a 3f d1 72 55 3f 16 16 6f 40
       6.4229527 1.207098 0.8337832 3.735723
000140 93 f7 5f 3f 89 44 ac 3f ed 7e a5 bf 61 c3 d7 c0
       0.87487143 1.3458415 -1.292936 -6.7426
000150 4c 80 f7 c0 b6 79 d1 40 0c 27 05 bd 1f 6b 86 c0
       -7.7344112 6.5461073 -0.03250794 -4.2005763
000160 e2 44 5d be 76 67 b3 bc bc 62 a6 bd 4f 53 e0 be
       -0.21608308 -0.02189992 -0.08124301 -0.4381356
000170 c5 b7 cc 40 35 fd 95 3f b6 11 50 3f 1e 53 6c 40
       6.397433 1.1717898 0.81277025 3.692573
000180 86 ce 5f 3f e3 18 ac 3f 02 34 a5 bf 84 97 d7 c0
       0.87424505 1.3445095 -1.2906497 -6.7372456
000190 3e 40 f7 c0 af 76 d0 40 2d 9a 1e bd 3e 22 85 c0
       -7.726592 6.5144877 -0.038721252 -4.16043
0001a0 26 21 5d be 7e 7b b9 bc cc f4 a5 bd ca 39 e0 be
       -0.21594676 -0.022641893 -0.08103332 -0.4379409
0001b0 b9 bc cb 40 62 9d 8d 3f 63 16 49 3f f9 b8 65 40
       6.3667874 1.1063654 0.78549784 3.5894148
0001c0 11 44 60 3f db 03 ad 3f 4f 7e a6 bf ea 43 d8 c0
       0.8760386 1.3516802 -1.3007296 -6.7582903
0001d0 c1 12 f8 c0 fa 42 d3 40 5d 4d ab bc 78 c0 88 c0
       -7.7522893 6.601926 -0.020910913 -4.2734947
0001e0 3b d2 5c be 1d 0e a1 bc 2a c0 a6 bd 15 6b e0 be
       -0.21564572 -0.01966005 -0.08142121 -0.43831697
0001f0 78 5b cf 40 32 14 a0 3f cf 22 5f 3f ed 87 70 40
       6.4799156 1.2506163 0.8716249 3.7582963
000200 c7 06 60 3f 20 6a ac 3f 74 b3 a5 bf 51 df d7 c0
       0.8751034 1.3469887 -1.294539 -6.7460103
000210 d5 9f f7 c0 f5 f6 d1 40 69 dd f3 bc 31 05 87 c0
       -7.7382607 6.561396 -0.029768663 -4.2193837
000220 58 16 5d be 25 72 ae bc 9a 68 a6 bd 1d 5a e0 be
       -0.21590555 -0.021294663 -0.0812542 -0.4381875
000230 24 5c cd 40 d7 fa 98 3f e1 9c 53 3f db d5 6e 40
       6.4174976 1.195155 0.82661253 3.7318027
000240 21 09 60 3f 73 7c ac 3f fc bc a5 bf dc e2 d7 c0
       0.8751393 1.3475479 -1.2948298 -6.746443
000250 d6 9c f7 c0 64 b3 d1 40 71 f6 fe bc 40 b4 86 c0
       -7.737895 6.5531483 -0.031123372 -4.209503
000260 f0 ea 5c be 92 85 b1 bc b5 16 a6 bd bf 4c e0 be
       -0.21573997 -0.021670137 -0.081098 -0.43808553
000270 7f 43 cd 40 3b b0 95 3f 49 e2 51 3f 16 ed 6a 40
       6.4144893 1.1694406 0.8198591 3.6707206

Q0 f4 [4, 4]
000000 0a d7 23 3c 00 00 00 00 00 00 00 00 00 00 00 00
       0.01 0.0 0.0 0.0
000010 00 00 00 00 0a d7 23 3c 00 00 00 00 00 00 00 00
       0.0 0.01 0.0 0.0
000020 00 00 00 00 00 00 00 00 0a d7 23 3c 00 00 00 00
       0.0 0.0 0.01 0.0
000030 00 00 00 00 00 00 00 00 00 00 00 00 0a d7 23 3c
       0.0 0.0 0.0 0.01

R f4 [2, 2]
000000 00 00 80 3f 00 00 00 00 00 00 00 00 00 00 80 3f
       1.0 0.0 0.0 1.0

lstm.weight_ih_l0 f4 [256, 2]
000000 8f 5e a3 bc 64 ae ba 3c 33 0d ba 3b f5 d5 01 3d
       -0.01994255 0.022788234 0.005677843 0.031698186
000010 d8 71 00 bc 11 f0 a3 3c 2c eb c1 3c e3 cf 11 3c
       -0.007839642 0.020011934 0.023671709 0.008899662
000020 38 d8 8f bc 7d 45 b6 3c 2e ca 2f 3c af d8 1e 3c
       -0.017559156 0.022249931 0.010729356 0.009695216
000030 5e b2 4e 3c 70 dd ca 3c ca 99 5b bc a2 8f a7 3c
       0.012615768 0.024763793 -0.013403365 0.020454232
000040 05 5f b5 bc c2 a6 ab 3c d2 3a da 3b 1f 32 c0 3c
       -0.022140035 0.02095354 0.006659844 0.0234614
000050 1d 1a 84 bc da 2a f8 3c 9e 90 79 bb af 6a fa 3c
       -0.016125733 0.03029387 -0.0038080583 0.030568449
000060 08 37 12 bc 1b 82 00 3d 90 7d 01 3c 16 87 b1 3c
       -0.008924253 0.03137408 0.007903472 0.02167086
000070 fb cc 57 3c 50 e7 83 3b e0 5f 3e 3c 34 ac 9b 3b
       0.01317143 0.0040253773 0.011619538 0.004750753
000080 84 4d d3 3c 0c 63 bf 3c 11 3a 27 bc 8b 39 c0 3c
       0.025793798 0.023362659 -0.010206715 0.023464939
000090 90 e4 fc 3b 8a 67 47 3d 62 45 62 ba 4c 3f d0 3c
       0.0077176765 0.048682727 -0.00086315547 0.025420807
0000a0 cc 46 67 3c 1d c1 c5 3c 0e 6f 97 bc 59 04 ad 3c
       0.014116 0.024139935 -0.018485572 0.021120237
0000b0 d7 3a 62 bc 35 0b bc 3c fd 32 c3 3c b7 4b fb 3c
       -0.013807974 0.022954563 0.023828024 0.030675752
0000c0 dc 23 74 bb 75 af 90 3c d7 d3 c0 ba 27 4a 84 3c
       -0.003725282 0.01766179 -0.0014711571 0.01614864
0000d0 21 d0 5b 3c b0 57 b3 3c a2 3f aa 3b eb fd 65 3c
       0.013416321 0.021892399 0.005195574 0.01403759
0000e0 5a d9 75 3c cf f1 55 3c 59 ad e5 3c 02 12 ed 3c
       0.015005434 0.01305814 0.02803676 0.02893925
0000f0 95 a4 64 3c 27 0d 47 3c db d4 81 3c 08 4b 72 3c
       0.013955255 0.012149132 0.015848568 0.014788397
000100 62 91 d7 3b a5 c6 d5 3c 4c 7c 99 bb a0 f8 c1 3c
       0.0065786103 0.026095698 -0.004684007 0.023678124
000110 d3 a2 2a bc 28 75 f0 3c 47 6b 60 bc 7c 3b ff 3c
       -0.010414797 0.02935274 -0.013697452 0.031156294
000120 82 9d 68 b9 f4 64 ba 3c 26 b5 c9 3b 06 48 a0 3c
       -0.0002218392 0.022753216 0.006155628 0.019565593
000130 5f 35 7e ba ff a9 a4 3c c6 f3 bf bb 10 37 96 3c
       -0.0009697284 0.020100592 -0.0058579175 0.018336803
000140 3a 99 c2 bb af e9 8a 3c 4c a9 3c 3c 58 42 40 3c
       -0.005938676 0.016957132 0.011514973 0.011734568
000150 5e 4c 14 3c 18 7b 5d 3c e3 ef d9 bb af c1 c8 3c
       0.0090514105 0.013518117 -0.006650911 0.024506418
000160 55 7a 7d bb 74 29 9a 3c ef 43 e0 3b 39 de d1 3c
       -0.0038677652 0.018818595 0.006844036 0.02561866
000170 dc 58 66 3c 22 15 f8 3c 4e 4d 88 3c 4e fb b9 3c
       0.014059272 0.030283514 0.016638424 0.02270284
000180 62 22 83 3c 89 c8 4e 3c dc dd f8 bb 89 09 fd 3c
       0.016007606 0.0126210535 -0.007594807 0.030888336
000190 4d 47 6d 3c 7d 3b 5b 3c 2f 13 4f bb 7c e7 fd 3c
       0.014482331 0.013380882 -0.0031597128 0.03099417
0001a0 85 42 74 3c 1b 5b a8 3c 38 5d 83 3c 69 ac 58 3c
       0.014908438 0.020551255 0.016035661 0.0132247
0001b0 5a 4f c9 3c 1f 4b 45 3c 9c 40 c0 3c cf 29 42 3c
       0.02457397 0.012041836 0.023468308 0.011850788
0001c0 d3 16 d4 3c 3b a7 83 3c 75 1c 99 3b 62 28 3d 3b
       0.02588979 0.016070953 0.004672582 0.0028863181
0001d0 b8 6e 06 3d 3b a5 80 bc 0b 12 95 3c d0 a4 05 3d
       0.032820433 -0.015703788 0.01819708 0.03262788
0001e0 b3 ff 51 3c 50 3e 4e 3c 2d d5 4b 3c 32 a6 94 3c
       0.012817311 0.012588099 0.012440962 0.018145654
0001f0 35 bb 2f 3c 4e a0 7b 3c e0 ec 86 bc 89 4d fa 3c
       0.010725786 0.015358044 -0.016470373 0.03055455
000200 0c 2a f3 ba 0f 82 2f 3d cb ac 24 bb 8a 39 f8 3c
       -0.001855196 0.042848643 -0.0025127407 0.030300874
000210 87 0e 9d bc ae b8 9c 3c 7e 1a 5b 3c c4 4f cb 3c
       -0.019171966 0.01913103 0.013373015 0.024818309
000220 ed f1 2c 3a bf 1a f7 3c 8a 23 49 3c 62 e0 81 3c
       0.0006597329 0.03016412 0.01227654 0.015854064
000230 bc 0c d3 3b 8f 4d 8b 3c 15 e2 52 bc 19 a3 9f 3c
       0.006440727 0.017004756 -0.012871285 0.01948695
000240 f0 30 f6 3c c9 e6 fb 3c 22 d4 70 bc 14 5e e7 3c
       0.030052632 0.030749695 -0.014699014 0.028243102
000250 7c b8 d2 bc 06 cd 96 3c 1c 1c 87 bc fa 11 bd 3c
       -0.025722735 0.01840831 -0.016492896 0.023079861
000260 42 db 70 3c 4e 8f 9c 3c d5 20 e4 3b a7 d9 ab 3c
       0.014700713 0.019111302 0.0069619217 0.020977808
000270 3e 99 61 bc 08 7c fd 3b f9 f1 93 3c 6b 5a 1b 3c
       -0.013769446 0.007735733 0.018059717 0.009482007
000280 7e ae 8c bc ac 36 ab 3c 44 32 8a 3c d9 88 c8 3c
       -0.017173048 0.020900093 0.016869672 0.024479317
000290 93 35 6b bb 41 cc 33 3d 44 2c 7d bc 59 87 c2 3c
       -0.0035890087 0.043895964 -0.015452448 0.02374618
0002a0 49 14 d3 bc 38 79 8a 3c a9 42 31 3b d7 ac a2 3c
       -0.025766509 0.016903505 0.002704779 0.019857807
0002b0 3c 4c f5 bb 5b ba eb 3c 34 51 bf bc e9 71 15 3d
       -0.0074858945 0.028775385 -0.02335415 0.036485586
0002c0 de 06 8d bc 43 39 c7 3c ce cd b3 bc d6 bd c0 3c
       -0.017215189 0.024319297 -0.021948721 0.02352802
0002d0 3c 01 a1 3c 59 88 7e 3c e3 26 77 bb fd ef bb 3c
       0.019653909 0.0155354375 -0.0037712387 0.022941584
0002e0 59 ff be bc 88 40 aa 3c d7 f3 6c bc 08 3e fe 3c
       -0.023315119 0.020782724 -0.014462433 0.031035438
0002f0 0a ed 24 3c 92 5a 84 3c ff 2b 4e 3c 35 8e 99 3c
       0.01006628 0.016156469 0.012583732 0.018744567
000300 8b e0 4a 3b 43 86 90 3c d0 c4 98 ba af 11 bb 3c
       0.0030956592 0.017642146 -0.0011655334 0.02283558
000310 9f 9d 95 bc a4 23 ce 3c ce 8b 86 bc 09 ad 9d 3c
       -0.018263636 0.02516348 -0.016424086 0.019247549
000320 19 78 8b bc 0a e3 e9 3c 1e 3d 7c bc f6 fd a5 3c
       -0.01702504 0.028550643 -0.015395431 0.0202627
000330 47 79 57 bc 31 cc c9 3c 6d 7f 60 bc 38 5c a8 3c
       -0.013151473 0.024633499 -0.013702256 0.020551786
000340 9b c6 6c bc 51 c4 a6 3c bb b7 16 3b e0 69 9a 3c
       -0.014451648 0.020357283 0.0022997695 0.018849313
000350 4e d4 29 3c 7a 96 80 3c 6f d5 a9 3a 7e d3 cb 3c
       0.010365559 0.015696753 0.0012957285 0.02488112
000360 58 34 f3 3b b4 6b fd 3c cb e9 83 3c b0 51 b4 3c
       0.0074220113 0.030935146 0.016102692 0.022011608
000370 11 1f 76 bb 72 d6 a9 3c 44 7a 90 bc e4 d5 c2 3c
       -0.0037555138 0.020732138 -0.017636426 0.023783632
000380 63 5d 3d 3c 1b 02 80 3c a2 73 da bb 42 eb a7 3c
       0.01155791 0.015626004 -0.0066666165 0.020497922
000390 a3 6c 51 3c 96 8d 8a 3c 67 9b 66 bc 36 66 dc 3c
       0.012782249 0.016913217 -0.014075137 0.026904207
0003a0 d4 5f f3 bc 58 1f f4 3c 63 57 74 3c 1c 58 96 3c
       -0.02970878 0.029800102 0.014913413 0.01835256
0003b0 3b ec c7 bb e4 12 fb 3c 4a 1d e8 bc fd 53 f9 3c
       -0.006101159 0.030648656 -0.028334279 0.030435557
0003c0 70 29 84 bb c3 1b e1 3c 75 27 25 3b 27 7a 0e 3c
       -0.00403326 0.027479058 0.002520052 0.008696116
0003d0 04 54 0f 3a 01 79 9f 3b 79 83 7d bc 49 89 08 3d
       0.00054675364 0.0048667197 -0.01547324 0.03333405
0003e0 27 87 de 3c 97 d2 99 3c d5 cc 9d 39 c7 b0 e1 3b
       0.027164055 0.018777175 0.00030097985 0.0068875286
0003f0 7c 45 01 3c a7 c5 84 3c d2 e5 24 bc 5c 1a b5 3c
       0.0078901015 0.01620753 -0.010064559 0.022107296

lstm.weight_hh_l0 f4 [256, 64]
000000 91 fa 03 3a b2 b7 12 b9 5e 55 d3 39 e2 2f 67 b8
       0.0005034591 -0.00013992077 0.0004030866 -5.5119286e-05
000010 80 7a c8 39 24 00 f7 b7 08 c0 a9 b6 84 96 ec b9
       0.00038238242 -2.944476e-05 -5.058948e-06 -0.0004512557
000020 10 a4 ec 39 b0 34 80 b9 b2 b2 11 ba 01 11 a0 39
       0.00045135664 -0.00024453318 -0.0005557939 0.00030530247
000030 20 cb 5b b9 88 23 08 36 c5 e3 83 b7 f8 9f 4c 37
       -0.00020961137 2.028626e-06 -1.572248e-05 1.2196593e-05
000040 8c f4 46 b9 9c 9d 6d 39 f1 5e 9f 39 ae 21 a6 b9
       -0.00018973852 0.00022660795 0.0003039758 -0.0003168708
000050 5a 4c 5d 39 8a 20 ac 39 3e 60 d3 39 e0 bf 4e 39
       0.00021104646 0.0003283064 0.00040316762 0.0001971717
000060 4f 95 90 b9 74 af a5 39 c6 00 06 38 08 7d 39 38
       -0.00027577064 0.00031601975 3.194881e-05 4.422388e-05
000070 16 21 97 39 eb 11 0f 39 7b 96 36 38 d5 d8 17 b8
       0.00028825615 0.00013644218 4.3532327e-05 -3.6203146e-05
000080 d5 08 60 b8 35 e8 86 39 2b 5e f7 39 2f 6d e8 39
       -5.3413987e-05 0.0002573148 0.00047181672 0.00044331836
000090 ae c3 ad b9 87 d7 93 b9 d8 4a ad 39 d0 dc 6b 39
       -0.00033142924 -0.00028198605 0.00033052894 0.00022493606
0000a0 01 fa aa 39 00 6f b4 b5 5a f6 25 b7 cf 43 82 39
       0.00032611194 -1.344335e-06 -9.892125e-06 0.00024846054
0000b0 a8 cc 54 b9 f8 8c 18 b8 60 61 33 b7 61 40 16 39
       -0.00020294136 -3.637091e-05 -1.0691903e-05 0.00014329098
0000c0 4c f2 92 38 bb 66 9f b9 91 a7 07 b8 ec 13 bd 39
       7.006954e-05 -0.00030403383 -3.2342567e-05 0.00036063732
0000d0 e0 bc 11 b9 4a f3 02 b8 78 99 53 38 9c b7 0d b8
       -0.00013898639 -3.1220996e-05 5.044925e-05 -3.378802e-05
0000e0 aa 6e 66 39 6e bd 32 37 8a 55 f8 b7 bf 69 8a b9
       0.00021975735 1.0653732e-05 -2.9603736e-05 -0.00026400198
0000f0 22 40 37 b8 63 ef 63 38 f0 c3 b2 35 39 cd ae b9
       -4.369033e-05 5.4343964e-05 1.3319059e-06 -0.0003334077
000100 56 69 cc 39 ba 12 93 b9 bb d9 af 39 3c 4c 23 39
       0.00038988393 -0.00028051977 0.00033540823 0.00015573291
000110 d0 17 ad 39 84 91 18 39 be ee 21 39 a5 ea b8 b9
       0.00033014873 0.00014550058 0.00015443095 -0.0003527004
000120 dd 42 a2 39 de 1f 97 b9 22 0c cf b9 16 4b a5 39
       0.00030948865 -0.00028824707 -0.00039491156 0.00031527196
000130 e1 61 87 b9 84 7a 35 b9 3e 27 c1 b8 e7 3d 11 39
       -0.00025822132 -0.00017307146 -9.2102666e-05 0.00013851338
000140 b6 d8 88 b9 79 e5 82 39 10 e3 c3 39 a3 26 ad b9
       -0.00026101404 0.00024966503 0.00037362473 -0.00033025918
000150 4b a4 97 39 88 48 71 39 bd bb b4 39 fe bd 94 39
       0.00028923372 0.00023010571 0.0003447215 0.00028370315
000160 3c 70 a3 b9 cd 38 ac 39 6b c0 1e b9 63 56 40 39
       -0.00031173404 0.00032848716 -0.00015139735 0.00018342728
000170 eb 11 9b 39 f6 a1 87 39 67 ec 16 b9 97 2e 2d 39
       0.00029577254 0.00025869877 -0.00014393181 0.00016515922
000180 8b 5a 42 b9 7f a6 a4 39 1c ff c2 39 d8 a2 ba 39
       -0.00018535012 0.00031404567 0.00037192635 0.00035598013
000190 b0 18 b9 b9 e7 a6 98 b9 e8 80 a6 39 03 76 96 39
       -0.00035304343 -0.0002911605 0.0003175803 0.00028698155
0001a0 60 59 a6 39 48 c9 20 39 a4 f9 18 39 74 f0 9c 39
       0.00031728577 0.00015333772 0.00014588848 0.0002993379
0001b0 13 ca 69 b9 ef fc 35 b9 1e 4e 2f 39 35 59 88 39
       -0.0002229589 -0.0001735573 0.00016718401 0.00026006406
0001c0 d6 86 0a b9 a4 40 a8 b9 31 f6 19 39 85 c2 b4 39
       -0.00013210936 -0.00032091618 0.0001468293 0.00034477204
0001d0 eb 3c 6c b9 67 76 34 39 c0 7f 12 b9 99 fc 34 b9
       -0.00022529408 0.00017210246 -0.00013971236 -0.00017260238
0001e0 c4 51 a3 b8 0e ef 63 b8 a3 52 2d 38 a8 b9 a2 b9
       -7.787676e-05 -5.4343654e-05 4.1323376e-05 -0.00031037373
0001f0 36 94 1c 39 38 8b ef 38 04 0e 1f b9 e2 9f a8 b9
       0.00014932532 0.000114223396 -0.00015168643 -0.0003216258
000200 f8 2a 0b 3a b6 f4 73 b9 e2 5e d5 39 47 62 29 38
       0.0005308832 -0.00023265448 0.0004069722 4.0384268e-05
000210 32 08 d7 39 7d f4 63 38 70 73 9f 38 d3 3a eb b9
       0.00041014102 5.4348715e-05 7.603213e-05 -0.0004486652
000220 88 8a f1 39 00 08 9c b9 7c 6f 0f ba 73 7c ad 39
       0.00046070316 -0.000297606 -0.00054716296 0.00033089853
000230 90 11 8b b9 eb 59 be b8 f2 10 9f b8 97 13 97 38
       -0.0002652523 -9.0766545e-05 -7.584867e-05 7.20389e-05
000240 57 fb 6c b9 3f 95 8d 39 31 35 c5 39 7e ba b8 b9
       -0.00022600345 0.00027004813 0.000376144 -0.00035234162
000250 18 69 84 39 28 33 b7 39 c7 0b d9 39 5a b0 91 39
       0.00025255303 0.00034942594 0.0004139824 0.00027787947
000260 0f 3d a3 b9 ca 86 b5 39 9b 7a 6b b8 d1 99 f6 38
       -0.00031135275 0.00034623436 -5.614255e-05 0.000117588446
000270 01 a1 a1 39 bc 54 50 39 81 a6 37 b8 14 d3 85 38
       0.0003082827 0.00019867992 -4.378567e-05 6.3812506e-05
000280 13 58 07 b9 9c d6 a0 39 54 5d fb 39 75 d2 e8 39
       -0.00012907413 0.00030677475 0.00047943986 0.0004440729
000290 dd e5 c6 b9 ed 18 a3 b9 0e ba b6 39 e3 d3 88 39
       -0.00037936764 -0.00031108354 0.00034852367 0.0002609781
0002a0 5a e0 b4 39 2c 08 ad 38 c8 31 8d 38 8d d9 9b 39
       0.0003449943 8.250805e-05 6.7326764e-05 0.00029725992
0002b0 a9 d9 85 b9 ee 0e fe b8 6f 7d ad 38 aa e6 50 39
       -0.00025529906 -0.00012114445 8.272647e-05 0.00019922355
0002c0 e6 fc 97 b7 26 4c af b9 ef 7f 5d 38 0d a4 cd 39
       -1.8118368e-05 -0.00033435336 5.2809653e-05 0.00039222874
0002d0 e0 18 50 b9 d1 76 95 38 37 c9 12 b8 d8 29 d1 b8
       -0.00019845692 7.127005e-05 -3.499651e-05 -9.9736906e-05
0002e0 3f 9e 6f 38 20 79 fa b7 fc ef 30 37 e9 c7 ac b9
       5.712942e-05 -2.9858726e-05 1.0546293e-05 -0.0003295534
0002f0 df bd 44 38 70 10 f3 38 9c 92 a0 b8 e9 0f b8 b9
       4.6906873e-05 0.00011590205 -7.656703e-05 -0.0003510707
000300 7e a0 55 b9 e0 68 ee b8 67 75 0b b9 e9 9c a7 39
       -0.00020373051 -0.00011368259 -0.00013299809 0.0003196963
000310 20 3f e6 b8 11 aa 85 39 af 94 6f 39 c5 93 32 39
       -0.000109790126 0.00025494446 0.00022848205 0.00017030451
000320 13 51 69 b9 3a 60 41 b8 d7 c8 59 39 b6 44 54 b8
       -0.00022250814 -4.6104404e-05 0.00020769551 -5.060873e-05
000330 2a a9 c5 b7 7e 92 74 b9 4d c6 11 b8 28 82 5f 39
       -2.3563003e-05 -0.00023324226 -3.4755376e-05 0.00021315424
000340 64 e2 d6 b7 f8 bf a7 b7 68 f7 5b 37 22 34 f2 37
       -2.561621e-05 -1.9997344e-05 1.3111021e-05 2.8872924e-05
000350 df 49 29 38 4c f6 cb b8 75 9e 16 b9 7c fd bd 38
       4.0361538e-05 -9.725671e-05 -0.00014364145 9.0594374e-05
000360 96 8d 18 38 c8 f9 23 b8 4e ee 8a b9 e9 78 2a 39
       3.6371486e-05 -3.9094855e-05 -0.00026498962 0.00016257506
000370 5c d4 38 b8 ce 4e d9 38 5b 1a 8c b9 e8 4a 93 39
       -4.4066794e-05 0.00010362045 -0.00026722517 0.00028093834
000380 1d 4b 36 b9 00 58 38 b6 3d 98 17 b9 24 18 25 b9
       -0.00017384854 -2.746936e-06 -0.00014457195 -0.0001574462
000390 28 c0 83 36 ba 36 fa 37 a1 33 97 b8 dd 47 dc 36
       3.926474e-06 2.9827806e-05 -7.209858e-05 6.564877e-06
0003a0 ff 1a a1 b8 d0 92 67 39 da cb 6e 39 5c 62 88 37
       -7.682107e-05 0.00022084569 0.0002277339 1.6258266e-05
0003b0 50 6c 62 b7 5f 3b 39 b9 9e 12 70 39 a5 a1 ba 38
       -1.3495868e-05 -0.00017665092 0.00022895119 8.89928e-05
0003c0 e2 2b 9b b9 dc 0b 5e 38 83 a0 87 39 11 7e 76 b8
       -0.000295966 5.293997e-05 0.00025868797 -5.876838e-05
0003d0 d9 b8 e6 b8 ad e6 99 39 16 61 8f b9 91 76 5d b9
       -0.00011001685 0.000293543 -0.0002734742 -0.00021120372
0003e0 c0 8a f2 38 a8 b8 a0 b8 28 97 93 38 dd 30 90 b8
       0.000115653034 -7.6637894e-05 7.037661e-05 -6.8755566e-05
0003f0 bc 60 95 39 f7 67 28 38 1b 33 66 b9 d1 1c 8c 38
       0.00028491567 4.0151146e-05 -0.00021953548 6.681088e-05

lstm.bias_ih_l0 f4 [256]
000000 e4 cb e6 39 a2 8c a0 39 81 01 10 3a da 71 71 39
       0.0004402093 0.00030622358 0.0005493388 0.00023025964
000010 78 49 94 39 ed d8 1f 39 da b2 7e 37 69 bb 07 3a
       0.00028283498 0.00015244233 1.5181222e-05 0.00051777676
000020 3a c4 05 3a 38 e8 19 3a 66 2b 01 3a f6 f3 1e 3a
       0.00051027874 0.000587109 0.00049274263 0.00060635747
000030 bb 6c 1b 3a d7 2f 47 39 86 8e ba 38 a8 16 bc 38
       0.0005928983 0.0001899594 8.895718e-05 8.9687586e-05
000040 9b 8e 3d 3a 97 3d 02 3a d3 1f 26 3b ab 67 65 3a
       0.00072310277 0.0004968284 0.0025348559 0.00087511045
000050 71 4f 24 3a 68 7b 8c 39 5b c7 ea 39 71 3c 89 3a
       0.0006267941 0.00026794826 0.0004478049 0.0010470283
000060 cd a0 28 3a 04 f6 66 3a be 6d 7c 38 a3 b2 2b 38
       0.00064326526 0.0008810463 6.0183687e-05 4.0935945e-05
000070 d0 74 9c 3a b2 c7 11 3a c9 65 1f 39 f4 ee de 39
       0.0011936668 0.0005561068 0.0001520134 0.00042521174
000080 27 bd fc 38 63 53 28 3a d7 2b 62 3a c2 8c e2 39
       0.00012051529 0.0006421117 0.00086277485 0.00043210952
000090 c9 b1 aa 3a e6 14 2a 3a df c4 06 3a 6b f9 06 3a
       0.0013022955 0.00064880995 0.00051410304 0.00051488605
0000a0 6e 41 33 3a 90 75 81 36 98 9d ea 37 07 cc 1a 3a
       0.0006838058 3.8581857e-06 2.7968359e-05 0.0005905036
0000b0 f1 be eb 39 4a 36 b7 38 54 e1 99 39 1c e5 f2 39
       0.00044964955 8.736232e-05 0.00029350317 0.00046328537
0000c0 f0 32 5f b6 c4 78 0a 3a 79 60 26 39 2d 27 75 3a
       -3.325924e-06 0.00052822777 0.00015866933 0.0009351846
0000d0 88 93 48 39 b4 9d bd 39 71 3d 47 ba 34 24 51 39
       0.00019128446 0.00036166387 -0.0007600403 0.0001994528
0000e0 40 8b 5d 3a be ee b9 b7 26 d6 03 b6 00 a0 ba 3a
       0.0008451231 -2.2164892e-05 -1.9645172e-06 0.0014238358
0000f0 24 6d 0c b8 64 00 e9 38 d0 8a d9 38 46 d2 c6 39
       -3.3480246e-05 0.000111103785 0.00010373222 0.0003792217
000100 c5 b9 bf 3b d2 22 a5 3b f4 62 44 3b f3 5a 9e 3b
       0.005851003 0.0050395513 0.0029966207 0.0048326193
000110 71 1a 72 3b 0c 2a 49 3b 9b fa 47 3b 30 03 4d 3b
       0.003694203 0.0030695228 0.0030514363 0.0031282417
000120 92 55 ae 3b 90 a5 9a 3b fe 34 9e 3b e9 59 58 3b
       0.0053202594 0.0047194436 0.0048280945 0.0033012575
000130 7a be 6f 3b 6b 9b 9e 3b b6 71 3f 39 67 58 f3 3a
       0.0036582039 0.0048403046 0.0001825754 0.0018565775
000140 45 85 8a 3b e5 ac 81 3b 73 5f 18 3c 4b 12 81 3b
       0.0042273127 0.003957378 0.009300101 0.0039389483
000150 44 54 76 3b 22 c2 4e 3b d2 68 7e 3b 7a c6 d7 3b
       0.0037586847 0.0031548818 0.0038819802 0.0065849395
000160 7f 8a 6e 3b be ce 85 3b 68 32 50 3b cd 70 64 3b
       0.0036398468 0.0040834835 0.0031768326 0.0034857274
000170 fc 4a 78 3b 4b 86 9f 3b 32 3e 4b 3b f4 1d a0 3b
       0.003788649 0.004868304 0.0031012413 0.004886383
000180 70 0c 55 3b 5b e1 6f 3b 58 46 a9 3b 5c ca 4e 3b
       0.0032508634 0.0036602828 0.0051658563 0.003155372
000190 54 12 cb 3b 4d f7 62 3b f4 a0 67 3b 14 88 51 3b
       0.0061972532 0.0034632266 0.0035343738 0.0031971978
0001a0 bd 85 4c 3b 38 0b 39 3b 3c d3 44 3b 71 c7 81 3b
       0.0031207644 0.0028235447 0.0030033132 0.003960543
0001b0 17 6b 72 3b 49 7c 51 3b d0 54 49 3b ce 29 8f 3b
       0.00369901 0.003196495 0.0030720718 0.004368997
0001c0 84 13 41 3b 88 80 63 3b 07 66 4c 3b 95 b3 b1 3b
       0.0029461095 0.0034714062 0.0031188743 0.005423019
0001d0 82 c7 97 3b 98 8c 9c 3b 57 fa 8c 3b 7c 1a 92 3b
       0.0046319375 0.0047775023 0.004302304 0.0044587236
0001e0 06 c0 7f b9 7f 30 2e 39 87 c1 33 38 a8 ba d8 3b
       -0.0002439023 0.00016612 4.2857162e-05 0.006614048
0001f0 27 68 4c 3b 69 67 4d 39 22 42 4a 3b 8d be 62 3b
       0.003119001 0.00019588847 0.0030862172 0.003459844
000200 52 14 08 3d 8a a7 dd bc 4c bd da 3c 0c 10 03 3d
       0.033222504 -0.027057428 0.026701592 0.031997725
000210 55 35 d6 3c 31 9f d4 3c aa 48 d2 3c 98 ea db bc
       0.026148478 0.025954815 0.025669415 -0.026845261
000220 86 a7 08 3d c6 ca dc bc 09 60 0a bd 0d b2 de 3c
       0.033362888 -0.026952159 -0.033782993 0.02718451
000230 10 12 db bc 9c 9d 04 bd fb 26 63 bc 16 6e 91 3c
       -0.026742011 -0.03237687 -0.013864274 0.017752688
000240 80 9f df bc cc 1b db 3c 67 12 21 3d 4f 5e f3 bc
       -0.027297735 0.026746653 0.03932419 -0.029708056
000250 9a 41 d9 3c 5d b6 d6 3c a5 e2 dc 3c fa 6e 14 3d
       0.02652054 0.026210004 0.026963541 0.036238648
000260 b0 f1 db bc 6a 96 d1 3c ed a2 d3 bc e3 53 d2 3c
       -0.026848644 0.025584418 -0.025834525 0.025674766
000270 60 b7 b7 3c 9d 52 f0 3c dd 88 d6 bc f1 bf 05 3d
       0.022426307 0.029336268 -0.026188308 0.032653753
000280 aa ce d4 bc 88 5b d4 3c 4e 7e 12 3d cf 32 dc 3c
       -0.025977451 0.025922552 0.035764985 0.026879696
000290 1b f4 17 bd f5 93 d9 bc bb 71 d7 3c 9d ed d5 3c
       -0.03709803 -0.02655981 0.026299348 0.02611428
0002a0 80 78 da 3c dd b4 d0 3c 41 2d d2 3c e3 54 e1 3c
       0.026668787 0.025476867 0.025656344 0.027506297
0002b0 cb 6a d9 bc 9d cc d4 bc 8c 83 d8 3c d6 dc dc 3c
       -0.02654018 -0.025976473 0.026429914 0.026960772
0002c0 c5 b3 d4 bc 0f 65 d9 bc fb 66 d5 3c 45 6f 11 3d
       -0.025964627 -0.026537446 0.026050081 0.035506506
0002d0 a0 f8 d6 bc cf 35 03 3d e4 ce f9 bc ff 0e 04 bd
       -0.0262416 0.032033738 -0.030494161 -0.032240864
0002e0 a1 e0 e8 bc d7 21 1b bc fa 7a a9 3a c9 03 1b bd
       -0.028427424 -0.009468517 0.0012930327 -0.037845407
0002f0 35 96 cf 3c 43 19 6d 3c 98 a2 d4 bc f6 1c d8 bc
       0.025340179 0.014471355 -0.025956437 -0.026380997
000300 df a0 24 3b 2e c4 e7 3a e0 28 d7 3a 2d c9 df 3a
       0.00251203 0.0017682367 0.001641538 0.0017073505
000310 a2 ca 0a 3b 3d b9 81 3a 79 8c 6f 3a 74 da cd 3a
       0.0021177907 0.0009897124 0.00091380585 0.0015705363
000320 5a 31 fe 3a ee 68 f8 3a dd 1c 27 3b 22 1d ef 3a
       0.001939337 0.001895217 0.0025499382 0.0018242935
000330 16 6a f7 3a 66 8a de 3a 77 50 18 39 12 be 40 3a
       0.001887622 0.0016978502 0.00014525825 0.00073525414
000340 9f 76 a0 3a 12 84 ea 3a c6 ac 4f 3b 57 da 0b 3b
       0.0012242383 0.0017892143 0.0031688674 0.0021339857
000350 3c 22 d8 3a 90 85 f9 3a 21 2e d2 3a 87 d4 46 3b
       0.0016489695 0.0019036997 0.0016035476 0.0030339079
000360 19 89 dd 3a ca 4d dc 3a 79 27 80 3a 31 a2 91 3a
       0.001690182 0.0016807851 0.0009777389 0.0011110959
000370 f2 9a a1 3a f6 66 cd 3a 1b 4f 8b 3a 12 b2 f4 3a
       0.0012329502 0.0015670944 0.0010628434 0.0018668792
000380 a6 f3 94 3a 1e 15 fb 3a 2e 72 3d 3b da 0d cd 3a
       0.0011364117 0.0019156074 0.0028907168 0.0015644387
000390 5b 6c 54 3b b3 e6 e6 3a bc 4e e5 3a ac 49 b2 3a
       0.0032413218 0.0017616361 0.0017494778 0.0013602278
0003a0 64 2e d2 3a 27 8d 60 3a 62 54 69 3a f1 91 fe 3a
       0.0016035554 0.0008565955 0.00089008186 0.0019422156
0003b0 a8 32 d9 3a 73 f8 8f 3a 32 9c 9a 3a ec bf c1 3a
       0.0016570883 0.0010984078 0.0011795817 0.0014781929
0003c0 bb a9 5c 3a 74 c4 d9 3a 7b 93 8b 3a 1d 6e 3d 3b
       0.0008417626 0.0016614334 0.0010648811 0.0028904744
0003d0 de eb c0 3a 64 9d de 3a 16 a6 bf 39 8a 39 e8 3a
       0.0014718731 0.0016984162 0.00036554103 0.0017717343
0003e0 f4 67 5e 3a 7e 33 79 b7 86 42 05 38 b4 5d 5f 3b
       0.0008484118 -1.48535455e-05 3.1771626e-05 0.003408295
0003f0 4e 00 58 3a bb 87 45 39 be 1b 88 3a 9b 9d fc 3a
       0.00082397915 0.00018837948 0.0010384244 0.0019273044

lstm.bias_hh_l0 f4 [256]
000000 37 d9 e6 39 14 85 a0 39 cc fe 0f 3a 2b 79 71 39
       0.00044030856 0.0003061673 0.0005492985 0.0002302869
000010 aa 47 94 39 d8 df 1f 39 12 4c 7e 37 62 b7 07 3a
       0.00028282154 0.0001524681 1.5157291e-05 0.00051771675
000020 26 c4 05 3a 66 e8 19 3a 54 2b 01 3a 99 f8 1e 3a
       0.0005102776 0.0005871117 0.0004927416 0.00060642656
000030 07 6b 1b 3a cc 34 47 39 60 8f ba 38 be 17 bc 38
       0.0005928729 0.00018997787 8.895877e-05 8.968961e-05
000040 01 8d 3d 3a a9 3d 02 3a d3 1f 26 3b 1a 65 65 3a
       0.0007230789 0.00049682945 0.0025348559 0.0008750722
000050 9f 55 24 3a 2e 79 8c 39 3f c6 ea 39 4a 3c 89 3a
       0.0006268862 0.00026793167 0.00044779663 0.0010470238
000060 03 a2 28 3a 53 f5 66 3a ed 0d 7c 38 41 a7 2b 38
       0.0006432833 0.000881036 6.009445e-05 4.0925344e-05
000070 ab 74 9c 3a 02 c8 11 3a 2d 5e 1f 39 c8 ee de 39
       0.0011936625 0.00055611145 0.00015198505 0.00042521046
000080 39 e0 fc 38 c6 52 28 3a 3a 2d 62 3a 62 8a e2 39
       0.00012058061 0.00064210256 0.0008627955 0.00043209182
000090 c5 b1 aa 3a fe 12 2a 3a 85 c4 06 3a 02 fc 06 3a
       0.001302295 0.00064878154 0.0005140978 0.00051492464
0000a0 84 41 33 3a 60 03 83 36 e7 c5 ea 37 e5 b6 1a 3a
       0.00068380707 3.904497e-06 2.798713e-05 0.0005901887
0000b0 fd bf eb 39 00 31 b7 38 4e ea 99 39 1c e5 f2 39
       0.00044965735 8.735247e-05 0.00029357005 0.00046328537
0000c0 70 24 5f b6 a5 75 0a 3a a4 5d 26 39 14 29 75 3a
       -3.32508e-06 0.00052818126 0.00015865878 0.00093521294
0000d0 3c 90 48 39 ec 96 bd 39 8e 39 47 ba 91 22 51 39
       0.00019127218 0.00036161335 -0.0007599824 0.0001994467
0000e0 59 8c 5d 3a b2 ee b9 b7 7e 9a 03 b6 30 9e ba 3a
       0.00084513944 -2.216487e-05 -1.9610447e-06 0.0014237817
0000f0 3a ce 0c b8 9f ff e8 38 84 66 d9 38 5d d5 c6 39
       -3.3570665e-05 0.00011110235 0.00010366461 0.0003792447
000100 bd b9 bf 3b c8 22 a5 3b f9 62 44 3b f3 5a 9e 3b
       0.005850999 0.0050395466 0.002996622 0.0048326193
000110 7b 1a 72 3b 0b 2a 49 3b 85 fa 47 3b 45 03 4d 3b
       0.0036942053 0.0030695226 0.0030514312 0.0031282466
000120 91 55 ae 3b 88 a5 9a 3b 0c 35 9e 3b ed 59 58 3b
       0.005320259 0.00471944 0.004828101 0.0033012584
000130 7a be 6f 3b 6a 9b 9e 3b a8 71 3f 39 6c 58 f3 3a
       0.0036582039 0.004840304 0.0001825752 0.001856578
000140 40 85 8a 3b e5 ac 81 3b 76 5f 18 3c 57 12 81 3b
       0.0042273104 0.003957378 0.009300103 0.003938954
000150 42 54 76 3b 25 c2 4e 3b da 68 7e 3b 7d c6 d7 3b
       0.0037586843 0.0031548825 0.003881982 0.006584941
000160 91 8a 6e 3b b8 ce 85 3b 66 32 50 3b d5 70 64 3b
       0.003639851 0.0040834807 0.003176832 0.0034857292
000170 02 4b 78 3b 49 86 9f 3b 3f 3e 4b 3b fa 1d a0 3b
       0.0037886505 0.004868303 0.0031012443 0.004886386
000180 70 0c 55 3b 59 e1 6f 3b 4f 46 a9 3b 65 ca 4e 3b
       0.0032508634 0.0036602824 0.005165852 0.0031553742
000190 61 12 cb 3b 4d f7 62 3b f4 a0 67 3b 16 88 51 3b
       0.0061972593 0.0034632266 0.0035343738 0.0031971983
0001a0 bd 85 4c 3b 52 0b 39 3b 4d d3 44 3b 6f c7 81 3b
       0.0031207644 0.0028235507 0.0030033172 0.003960542
0001b0 13 6b 72 3b 49 7c 51 3b d5 54 49 3b ce 29 8f 3b
       0.003699009 0.003196495 0.003072073 0.004368997
0001c0 9b 13 41 3b 8f 80 63 3b 19 66 4c 3b a6 b3 b1 3b
       0.0029461149 0.0034714078 0.0031188785 0.005423027
0001d0 81 c7 97 3b 98 8c 9c 3b 76 fa 8c 3b 7c 1a 92 3b
       0.004631937 0.0047775023 0.004302318 0.0044587236
0001e0 9c a3 7f b9 7c 30 2e 39 7b c2 33 38 a5 ba d8 3b
       -0.00024379644 0.00016611995 4.285805e-05 0.0066140466
0001f0 27 68 4c 3b 74 67 4d 39 37 42 4a 3b 97 be 62 3b
       0.003119001 0.00019588863 0.003086222 0.0034598464
000200 52 14 08 3d 7e a7 dd bc 4c bd da 3c 0e 10 03 3d
       0.033222504 -0.027057406 0.026701592 0.031997733
000210 5f 35 d6 3c 34 9f d4 3c a7 48 d2 3c 95 ea db bc
       0.026148496 0.02595482 0.025669409 -0.026845256
000220 85 a7 08 3d c2 ca dc bc 7f 60 0a bd 09 b2 de 3c
       0.033362884 -0.026952151 -0.033783432 0.027184503
000230 0a 12 db bc 9d 9d 04 bd 0d 27 63 bc 10 6e 91 3c
       -0.026742 -0.032376874 -0.013864291 0.017752677
000240 80 9f df bc da 1b db 3c 65 12 21 3d 47 5e f3 bc
       -0.027297735 0.02674668 0.039324183 -0.02970804
000250 e6 41 d9 3c 61 b6 d6 3c 99 e2 dc 3c f9 6e 14 3d
       0.02652068 0.026210012 0.026963519 0.036238644
000260 b1 f1 db bc 66 96 d1 3c ed a2 d3 bc d3 53 d2 3c
       -0.026848646 0.02558441 -0.025834525 0.025674736
000270 60 b7 b7 3c 98 52 f0 3c dd 88 d6 bc f1 bf 05 3d
       0.022426307 0.029336259 -0.026188308 0.032653753
000280 ad ce d4 bc 88 5b d4 3c 57 7e 12 3d c7 32 dc 3c
       -0.025977457 0.025922552 0.03576502 0.026879681
000290 21 f4 17 bd fa 93 d9 bc c1 71 d7 3c 9c ed d5 3c
       -0.037098054 -0.026559819 0.02629936 0.026114278
0002a0 8b 78 da 3c db b4 d0 3c 45 2d d2 3c ec 54 e1 3c
       0.026668807 0.025476864 0.025656352 0.027506314
0002b0 c9 6a d9 bc 60 cc d4 bc 8c 83 d8 3c da dc dc 3c
       -0.026540177 -0.02597636 0.026429914 0.026960779
0002c0 ba b3 d4 bc 0f 65 d9 bc fd 66 d5 3c 3b 6f 11 3d
       -0.025964607 -0.026537446 0.026050085 0.03550647
0002d0 a9 f8 d6 bc c8 35 03 3d e4 ce f9 bc ff 0e 04 bd
       -0.026241617 0.03203371 -0.030494161 -0.032240864
0002e0 a8 e0 e8 bc 97 21 1b bc 00 7b a9 3a cc 03 1b bd
       -0.028427437 -0.009468458 0.0012930334 -0.037845418
0002f0 27 96 cf 3c 49 19 6d 3c 9f a2 d4 bc f6 1c d8 bc
       0.025340153 0.0144713605 -0.02595645 -0.026380997
000300 ce a1 24 3b 32 c6 e7 3a 0c 29 d7 3a b6 c7 df 3a
       0.0025120857 0.0017682968 0.0016415431 0.0017073068
000310 15 cb 0a 3b 70 b8 81 3a 7e 8e 6f 3a 6d da cd 3a
       0.0021178175 0.0009896886 0.00091383595 0.0015705355
000320 5a 31 fe 3a 47 68 f8 3a f5 1b 27 3b cc 1c ef 3a
       0.001939337 0.0018951976 0.0025498841 0.0018242835
000330 3e 6b f7 3a bb 8b de 3a 77 50 18 39 9a be 40 3a
       0.0018876565 0.0016978899 0.00014525825 0.00073526206
000340 9f 76 a0 3a 6e 82 ea 3a a9 ad 4f 3b ca d9 0b 3b
       0.0012242383 0.0017891654 0.0031689203 0.002133953
000350 79 22 d8 3a 72 85 f9 3a 50 2d d2 3a aa d5 46 3b
       0.0016489766 0.0019036962 0.0016035233 0.0030339756
000360 19 89 dd 3a c8 4d dc 3a 6d 27 80 3a 0b a2 91 3a
       0.001690182 0.0016807849 0.0009777375 0.0011110915
000370 f4 9a a1 3a 9d 67 cd 3a d6 4c 8b 3a 72 b2 f4 3a
       0.0012329505 0.0015671138 0.0010627757 0.0018668904
000380 d2 f3 94 3a 10 15 fb 3a 0b 72 3d 3b bc 0d cd 3a
       0.0011364168 0.0019156057 0.0028907086 0.0015644352
000390 01 6d 54 3b a9 e6 e6 3a a0 4d e5 3a aa 49 b2 3a
       0.0032413604 0.001761635 0.0017494448 0.0013602276
0003a0 7c 2e d2 3a 97 8e 60 3a 19 52 69 3a 4e 92 fe 3a
       0.0016035582 0.00085661694 0.0008900478 0.0019422264
0003b0 99 32 d9 3a f0 f9 8f 3a 5d 9c 9a 3a e6 bf c1 3a
       0.0016570865 0.0010984521 0.0011795867 0.0014781922
0003c0 5d ad 5c 3a 55 c3 d9 3a 96 93 8b 3a 04 6d 3d 3b
       0.0008418167 0.0016614 0.0010648842 0.002890409
0003d0 e4 eb c0 3a da 9c de 3a 0b 9b bf 39 4b 3b e8 3a
       0.0014718738 0.0016984001 0.00036545875 0.0017717866
0003e0 a1 67 5e 3a 23 34 79 b7 c2 1f 05 38 8b 5d 5f 3b
       0.000848407 -1.4853696e-05 3.1739248e-05 0.0034082856
0003f0 92 03 58 3a bb 87 45 39 be 1b 88 3a 1b 9d fc 3a
       0.0008240278 0.00018837948 0.0010384244 0.0019272895

lstm.weight_ih_l1 f4 [256, 64]
000000 23 2f 2b 3d 4f 29 12 bd 74 13 13 3d aa a8 28 3d
       0.041793 -0.035683926 0.035907224 0.041176476
000010 9b 4f 13 3d 5d 21 11 3d d6 28 11 3d a2 39 13 bd
       0.03596459 0.03543221 0.035439335 -0.035943635
000020 b6 85 2a 3d 4b 91 12 bd 93 a8 2b bd 90 ea 12 3d
       0.041631423 -0.035783093 -0.04190881 0.035868227
000030 eb 3e 12 bd ce bd 28 bd 16 8d 0e bd 21 6b 10 3d
       -0.035704535 -0.041196637 -0.03480252 0.035258416
000040 d2 ef 11 bd 09 6b 12 3d 22 d2 2b 3d 20 e8 12 bd
       -0.0356291 0.035746608 0.041948445 -0.035865903
000050 c7 53 12 3d 08 6f 12 3d 35 1f 13 3d ca d6 29 3d
       0.035724428 0.03575042 0.035918433 0.041464604
000060 33 c1 12 bd c2 9e 12 3d 21 1d 11 bd 89 56 11 3d
       -0.03582878 0.035795934 -0.03542817 0.035482917
000070 61 e9 11 3d e9 fe 11 3d f8 1d 11 bd 99 ab 28 3d
       0.035622958 0.035643492 -0.03542897 0.041179273
000080 75 7b 11 bd fc 9c 12 3d c7 47 2b 3d 0b 31 13 3d
       -0.03551813 0.035794243 0.0418165 0.035935443
000090 06 19 2b bd 01 cb 12 bd f1 d8 12 3d e3 54 12 3d
       -0.04177191 -0.03583813 0.035851423 0.035725486
0000a0 83 e1 12 3d 80 1e 11 3d 67 23 11 3d cd ec 12 3d
       0.035859596 0.035429478 0.035434153 0.035870362
0000b0 31 e0 11 bd 33 6f 11 bd e8 17 11 3d c0 fc 11 3d
       -0.035614196 -0.03550644 0.03542319 0.03564143
0000c0 6b 12 11 bd b5 e2 12 bd b1 1f 11 3d ef 03 2b 3d
       -0.035417955 -0.035860736 0.035430614 0.0417518
0000d0 df 51 11 bd 7a 95 24 3d 45 b7 28 bd 40 8e 28 bd
       -0.03547847 0.040181614 -0.041190404 -0.041151285
0000e0 66 fb 10 bd 1f 06 3d ba 97 21 42 3a 77 e0 2a bd
       -0.035396002 -0.000721069 0.0007405518 -0.041717973
0000f0 c1 0b 11 3d 0f e2 09 3d 41 34 11 bd dd d0 12 bd
       0.0354116 0.033662852 -0.035450224 -0.03584372
000100 ae 2b 2b 3d 5b 28 12 bd 3f 2a 13 3d 7e ab 28 3d
       0.041789703 -0.035683017 0.03592896 0.041179173
000110 e1 4e 13 3d f9 38 11 3d 48 28 11 3d 08 51 13 bd
       0.035963897 0.035454724 0.035438806 -0.03596595
000120 25 84 2a 3d 1b 92 12 bd 39 b0 2b bd f8 fb 12 3d
       0.04162993 -0.03578387 -0.041916106 0.035884827
000130 3a 5f 12 bd 8c c5 28 bd 0d 5c 0e bd 07 6e 10 3d
       -0.035735346 -0.04120402 -0.034755755 0.03526118
000140 d0 f1 11 bd d1 69 12 3d ad d9 2b 3d 48 01 13 bd
       -0.035631 0.035745446 0.04195564 -0.035889894
000150 31 52 12 3d fb 6d 12 3d d5 1f 13 3d fa ce 29 3d
       0.035722915 0.035749417 0.03591903 0.041457154
000160 a7 cf 12 bd c8 a0 12 3d b2 1c 11 bd d0 55 11 3d
       -0.035842564 0.035797864 -0.035427757 0.035482228
000170 51 e7 11 3d 0b 02 12 3d e3 39 11 bd bd a5 28 3d
       0.03562099 0.03564648 -0.035455596 0.041173685
000180 e6 7a 11 bd 92 aa 12 3d ac 3d 2b 3d 19 32 13 3d
       -0.035517596 0.0358072 0.04180686 0.03593645
000190 f1 0f 2b bd 9b cc 12 bd 36 d7 12 3d 15 53 12 3d
       -0.04176325 -0.03583966 0.035849772 0.035723764
0001a0 20 fd 12 3d 29 1e 11 3d 02 25 11 3d 71 ef 12 3d
       0.03588593 0.035429154 0.035435684 0.03587288
0001b0 72 de 11 bd 74 6e 11 bd c0 37 11 3d 83 fb 11 3d
       -0.03561253 -0.035505727 0.035453558 0.03564025
0001c0 8e 13 11 bd b4 e1 12 bd 64 36 11 3d e4 08 2b 3d
       -0.03541904 -0.03585978 0.03545226 0.041756526
0001d0 0b 56 11 bd fc 9b 24 3d 97 bf 28 bd 97 88 28 bd
       -0.035482448 0.04018782 -0.04119834 -0.041145887
0001e0 99 f3 10 bd d3 07 3c ba 06 87 41 3a bb d9 2a bd
       -0.035388563 -0.0007172797 0.0007382486 -0.04171155
0001f0 f3 0a 11 3d 11 8e 07 3d 7c 34 11 bd 39 cf 12 bd
       0.035410833 0.03309447 -0.035450444 -0.035842154
000200 34 0d 2b 3d b1 28 12 bd b3 19 13 3d a7 88 28 3d
       0.04176064 -0.035683338 0.03591318 0.041145947
000210 a8 51 13 3d a0 1c 11 3d 4b 27 11 3d 04 41 13 bd
       0.035966545 0.03542769 0.035437863 -0.035950676
000220 7f 68 2a 3d 76 91 12 bd b3 87 2b bd 15 ef 12 3d
       0.04160356 -0.035783254 -0.04187746 0.035872538
000230 09 46 12 bd ba 9d 28 bd 1e 6d 0f bd ce 69 10 3d
       -0.035711322 -0.041166045 -0.03501617 0.035257153
000240 17 ef 11 bd d7 6a 12 3d 79 b2 2b 3d 48 f0 12 bd
       -0.035628404 0.03574642 0.04191825 -0.03587368
000250 34 54 12 3d ae 6e 12 3d f8 20 13 3d a3 b4 29 3d
       0.035724834 0.035750084 0.035920113 0.041432034
000260 3a c6 12 bd 1a a0 12 3d b0 1a 11 bd ab 56 11 3d
       -0.035833575 0.035797216 -0.03542584 0.035483044
000270 28 ea 11 3d 10 fe 11 3d de 1f 11 bd d8 87 28 3d
       0.0356237 0.035642684 -0.03543078 0.041145176
000280 14 79 11 bd 2a 9f 12 3d 62 24 2b 3d 96 33 13 3d
       -0.03551586 0.035796322 0.041782744 0.035937868
000290 b4 f6 2a bd cf cc 12 bd e6 d9 12 3d ea 55 12 3d
       -0.04173918 -0.035839852 0.035852335 0.035726465
0002a0 d4 ea 12 3d 40 1d 11 3d e1 21 11 3d 1d ee 12 3d
       0.03586848 0.035428286 0.0354327 0.035871614
0002b0 eb e3 11 bd b9 6d 11 bd 55 17 11 3d da fb 11 3d
       -0.03561775 -0.03550503 0.03542264 0.035640575
0002c0 e6 0e 11 bd dd e3 12 bd 9d 20 11 3d 31 e5 2a 3d
       -0.0354146 -0.03586184 0.035431493 0.04172248
0002d0 e1 4f 11 bd 2d 7c 24 3d cb 92 28 bd 41 69 28 bd
       -0.03547657 0.040157486 -0.041155618 -0.041116003
0002e0 04 0b 11 bd d1 e1 3d ba 28 6d 43 3a 67 be 2a bd
       -0.035410896 -0.0007243427 0.0007454925 -0.041685488
0002f0 29 0c 11 3d a0 6f 0a 3d b9 30 11 bd bf d1 12 bd
       0.035411987 0.03379786 -0.035446856 -0.03584456
000300 64 df 2a 3d 1f 2f 12 bd ba 8c 13 3d 33 81 28 3d
       0.04171695 -0.03568947 0.03602288 0.04113884
000310 c6 55 13 3d 6c 2e 11 3d 02 30 11 3d e4 c2 13 bd
       0.03597047 0.035444662 0.035446174 -0.036074534
000320 f8 41 2a 3d 8c 97 12 bd 56 83 2b bd 39 46 13 3d
       0.04156682 -0.035789058 -0.0418733 0.03595564
000330 0e dc 12 bd 94 9a 28 bd 4a 29 0f bd 2a 77 10 3d
       -0.03585439 -0.041163042 -0.034951486 0.035269894
000340 e5 f6 11 bd b4 70 12 3d 21 ae 2b 3d 5a 84 13 bd
       -0.035635848 0.035752013 0.04191411 -0.036014892
000350 52 59 12 3d eb 74 12 3d e5 25 13 3d 62 7f 29 3d
       0.035729714 0.035756033 0.03592481 0.041381247
000360 14 12 13 bd 29 a7 12 3d f1 23 11 bd cf 5e 11 3d
       -0.035905913 0.035803948 -0.035434667 0.035490807
000370 81 ee 11 3d cf 06 12 3d 38 d0 11 bd ea 41 28 3d
       0.035627846 0.035651024 -0.035598963 0.041078486
000380 54 81 11 bd a4 cf 12 3d 84 e0 2a 3d 49 3a 13 3d
       -0.035523728 0.035842553 0.04171802 0.035944257
000390 5d b1 2a bd 78 d4 12 bd 2f de 12 3d 7a 5a 12 3d
       -0.041673053 -0.035847157 0.035856422 0.035730816
0003a0 f9 72 13 3d 23 26 11 3d c5 2b 11 3d 50 f6 12 3d
       0.03599832 0.03543676 0.035442133 0.035879433
0003b0 1f ea 11 bd eb 75 11 bd 8e bd 11 3d 74 01 12 3d
       -0.035623666 -0.035512846 0.035581164 0.035645917
0003c0 b0 18 11 bd 4a e8 12 bd c6 92 11 3d 24 df 2a 3d
       -0.035423934 -0.03586606 0.035540365 0.04171671
0003d0 5d 5c 11 bd 7a 7a 24 3d c1 90 28 bd 0c 2c 28 bd
       -0.035488475 0.040155865 -0.041153673 -0.04105763
0003e0 bf 08 11 bd 0c 10 3a ba 56 b1 41 3a c5 89 2a bd
       -0.03540873 -0.0007097728 0.0007388791 -0.041635294
0003f0 de 14 11 3d 04 0f fe 3c 66 3a 11 bd 23 d6 12 bd
       0.03542029 0.03101302 -0.035456084 -0.035848748

lstm.weight_hh_l1 f4 [256, 64]
000000 a0 f5 b1 3a 45 c7 b2 3a 53 32 b0 3a e0 d0 b2 ba
       0.001357723 0.0013639709 0.0013442732 -0.0013642572
000010 d8 4e ae 3a c7 7d b4 3a 2d 80 b2 ba 8f 91 af ba
       0.0013298644 0.0013770395 -0.0013618522 -0.001339482
000020 5a be a9 3a 7d 07 b3 ba ee a1 ae ba cc b1 ac ba
       0.0012950406 -0.0013658848 -0.0013323405 -0.0013175546
000030 f8 84 af ba 1d 17 ae 3a ce 16 ac 3a 61 e5 ac 3a
       -0.0013391068 0.0013282035 0.0013129355 0.0013190919
000040 7e 2d af ba 68 15 ae 3a 7e 05 b3 ba e2 59 b2 3a
       -0.0013364998 0.0013281526 -0.0013658253 0.001360711
000050 58 2b b0 3a 5e 21 b2 3a 85 f6 b0 ba f2 36 b0 ba
       0.0013440652 0.0013590266 -0.0013501203 -0.0013444109
000060 94 59 b1 ba 19 b2 b2 3a 9c 37 b3 3a 7f cc b2 3a
       -0.0013530725 0.00136334 0.0013673189 0.0013641267
000070 ab 7d af ba 6f 96 af ba 43 8b af ba 74 ca ab 3a
       -0.0013388892 -0.0013396273 -0.0013392944 0.00131066
000080 e2 95 ac 3a 8c cd ad ba 74 33 b1 3a ca 77 ae 3a
       0.0013167227 -0.001326011 0.0013519363 0.0013310846
000090 8d 44 ae ba 00 f1 ae 3a c5 e2 af ba 64 3c b1 3a
       -0.0013295576 0.001334697 -0.0013419023 0.0013522026
0000a0 9b e4 b0 3a fb 4d ae ba ed c0 ae ba 73 7f b0 3a
       0.0013495864 -0.0013298386 -0.0013332643 0.0013465717
0000b0 fb 76 af ba be a3 b0 3a a3 82 b2 ba c7 4e b0 ba
       -0.0013386899 0.0013476533 -0.0013619255 -0.0013451212
0000c0 73 0c af 3a 05 4b b3 ba 9f f5 b2 ba 56 30 af 3a
       0.0013355151 -0.0013678974 -0.0013653523 0.0013365846
0000d0 59 55 ad 3a 9e cb b4 ba 5e b3 b0 ba 7a ac af ba
       0.0013224288 -0.0013793593 -0.001348119 -0.0013402842
0000e0 73 91 af 3a 1d 4c ae 3a 87 40 ae ba 86 05 b1 ba
       0.0013394788 0.001329783 -0.0013294377 -0.0013505674
0000f0 61 97 b0 ba ac 5c ad 3a 53 c9 b1 3a c9 2b b2 3a
       -0.0013472849 0.0013226471 0.0013564028 0.0013593371
000100 9a 7a b3 3a c7 55 b4 3a fb 67 b2 3a 69 46 b5 ba
       0.0013693154 0.0013758474 0.0013611311 -0.0013830188
000110 a6 23 b1 3a 45 06 b7 3a 7c 42 b5 ba 94 bb b1 ba
       0.0013514652 0.001396366 -0.0013829018 -0.0013559931
000120 d1 cd ac 3a ed 8c b4 ba 5a f7 b0 ba 98 6e af ba
       0.0013183897 -0.0013774909 -0.0013501451 -0.00133844
000130 48 26 b2 ba 4d 7b b0 3a 17 0f af 3a 5b c3 af 3a
       -0.0013591731 0.0013464481 0.0013355938 0.0013409661
000140 3e 8d b1 ba 83 75 b0 3a 6b 66 b5 ba d8 40 b4 3a
       -0.0013546122 0.0013462756 -0.0013839727 0.0013752235
000150 61 5c b2 3a ed fa b4 3a 8b 56 b3 ba c1 8a b2 ba
       0.0013607853 0.0013807692 -0.0013682408 -0.0013621674
000160 87 3c b3 ba 55 3f b4 3a cd be b4 3a 1a 95 b4 3a
       -0.0013674655 0.0013751785 0.0013789773 0.0013777346
000170 ca f2 b1 ba ab f9 b1 ba f4 05 b2 ba e6 d1 ae 3a
       -0.0013576385 -0.0013578435 -0.0013582096 0.0013337701
000180 a1 2d af 3a c0 15 b0 ba 36 d1 b3 3a 4a 1d b1 3a
       0.0013365039 -0.0013434216 0.0013718966 0.0013512757
000190 e3 28 b1 ba a0 66 b1 3a aa f2 b2 ba 44 2b b4 3a
       -0.0013516214 0.0013534613 -0.0013652642 0.0013745804
0001a0 de ec b3 3a f9 3a b1 ba 5e 80 b1 ba 0d 42 b3 3a
       0.0013727208 -0.0013521604 -0.0013542285 0.0013676301
0001b0 ea 60 b2 ba de ea b2 3a c5 90 b4 ba 39 ec b2 ba
       -0.0013609205 0.0013650318 -0.0013776055 -0.0013650722
0001c0 5c 77 b1 3a 5b 39 b6 ba f4 7a b4 ba 37 18 b2 3a
       0.00135396 -0.0013902591 -0.0013769553 0.0013587539
0001d0 86 f2 af 3a 9b 95 b7 ba d7 48 b3 ba 3b 1e b2 ba
       0.0013423718 -0.0014006378 -0.0013678324 -0.0013589332
0001e0 94 b4 b2 3a 0e 1e b1 3a 84 89 b0 ba 96 7e b3 ba
       0.0013634139 0.0013512985 -0.0013468717 -0.0013694342
0001f0 cf 4f b3 ba 4d 12 b0 3a b7 8b b3 3a 4a fb b3 3a
       -0.0013680401 0.0013433188 0.0013698254 0.0013731506
000200 ec 09 ae 3a dd b9 ae 3a b2 86 ac 3a 9a f5 ae ba
       0.0013278103 0.0013330538 0.0013162701 -0.0013348341
000210 4d 13 ab 3a 58 68 b0 3a 65 d4 ae ba 42 12 ac ba
       0.0013052017 0.0013458831 -0.0013338445 -0.0013128
000220 ed 23 a7 3a 24 ef ae ba 47 4d ab ba 89 a1 a9 ba
       0.0012751796 -0.0013346416 -0.0013069295 -0.0012941818
000230 37 2e ac ba 56 d7 aa 3a b4 2c a9 3a 4e d8 a9 3a
       -0.0013136332 0.0013034146 0.0012906999 0.001295814
000240 fd ec ab ba b0 c7 aa 3a 5b 1e af ba 5c 6e ae 3a
       -0.0013116893 0.0013029482 -0.0013360487 0.0013308036
000250 9f 97 ac 3a e2 83 ae 3a 74 40 ad ba 5a 9e ac ba
       0.0013167745 0.0013314451 -0.0013218061 -0.0013169751
000260 bc 86 ad ba 24 a8 ae 3a 98 1d af 3a 25 c7 ae 3a
       -0.0013239007 0.0013325256 0.001336026 0.0013334496
000270 d9 10 ac ba a1 3f ac ba d3 15 ac ba c6 fd a8 3a
       -0.001312758 -0.0013141521 -0.0013129063 0.0012893013
000280 c1 7f a9 3a 91 84 aa ba 84 96 ad 3a d3 29 ab 3a
       0.001293175 -0.0013009479 0.001324371 0.0013058729
000290 bf 0a ab ba f7 94 ab 3a 6c 72 ac ba 04 c2 ad 3a
       -0.0013049467 0.001309066 -0.0013156659 0.0013256674
0002a0 98 4e ad 3a 31 18 ab ba f3 72 ab ba 74 08 ad 3a
       0.0013222275 -0.0013053474 -0.0013080522 0.0013201372
0002b0 93 28 ac ba 33 f5 ac 3a a5 82 ae ba 7e cf ac ba
       -0.0013134651 0.0013195634 -0.0013314082 -0.0013184396
0002c0 d7 a8 ab 3a 58 73 af ba 2b e3 ae ba 9e e0 ab 3a
       0.0013096583 -0.0013385816 -0.0013342848 0.0013113206
0002d0 ad 25 aa 3a c6 c6 b0 ba 34 1c ad ba ad 40 ac ba
       0.0012981199 -0.0013486973 -0.0013207258 -0.0013141833
0002e0 bb 52 ac 3a 12 07 ab 3a 0c 01 ab ba fd 74 ad ba
       0.0013147214 0.0013048372 -0.0013046577 -0.0013233718
0002f0 4a 1c ad ba b6 43 aa 3a 44 ee ad 3a 97 3b ae 3a
       -0.0013207283 0.001299015 0.0013269861 0.0013292906
000300 39 22 b2 3a dc d7 b2 3a 23 19 b1 3a 98 8c b4 ba
       0.0013590521 0.0013644653 0.001351152 -0.001377481
000310 2f a8 b3 3a 68 28 b7 3a d6 e4 b7 ba 8a 0e b1 ba
       0.0013706739 0.0013973834 -0.001402999 -0.0013508361
000320 bb 58 b2 3a 00 05 b3 ba ef 1c b1 ba 64 64 b1 ba
       0.0013606766 -0.0013658106 -0.0013512651 -0.0013533947
000330 5a b9 b3 ba dd 05 b2 3a 1e 19 b4 3a 14 60 b3 3a
       -0.0013711855 0.001358207 0.0013740396 0.001368525
000340 48 85 b3 ba e2 eb b0 3a 30 bf b4 ba 11 e2 b2 3a
       -0.0013696337 0.0013498033 -0.0013789888 0.0013647695
000350 b3 df b2 3a 8c 9a b5 3a 0e b7 b2 ba 08 f6 b1 ba
       0.001364699 0.0013855263 -0.0013634877 -0.0013577351
000360 96 b6 b1 ba bb b2 b2 3a dd 38 b3 3a 34 1a b3 3a
       -0.0013558443 0.0013633588 0.0013673563 0.0013664425
000370 5e 3e b3 ba e4 0b b3 ba e6 90 b2 ba 89 e7 b3 3a
       -0.0013675203 -0.001366016 -0.0013623505 0.0013725619
000380 7e 26 b2 3a 46 8e b1 ba 3e 8f b5 3a d9 37 b4 3a
       0.0013591794 -0.0013546429 0.0013851894 0.0013749554
000390 e3 91 b3 ba b6 e6 b2 3a 36 ba b4 ba 50 f3 b5 3a
       -0.0013700094 0.001364908 -0.0013788405 0.0013881717
0003a0 bd 8a b4 3a 44 5f b4 ba f6 ab b3 ba e7 3e b5 3a
       0.0013774257 -0.0013761302 -0.0013707865 0.001382795
0003b0 b4 16 b6 ba b9 44 b2 3a 20 f9 b2 ba 02 27 b4 ba
       -0.0013892264 0.0013600803 -0.0013654567 -0.0013744535
0003c0 55 6b b2 3a 7c 30 b6 ba e0 fe b2 ba 11 55 b4 3a
       0.001361231 -0.0013899948 -0.0013656281 0.0013758262
0003d0 b0 4d b2 3a b2 b0 b8 ba 14 aa b4 ba c2 42 b2 ba
       0.0013603475 -0.0014090745 -0.0013783597 -0.0013600218
0003e0 f9 66 b7 3a 90 56 b3 3a 5a 1a b2 ba b5 78 b4 ba
       0.001399248 0.0013682414 -0.0013588176 -0.0013768884
0003f0 b3 3c b6 ba 29 76 b3 3a ad 36 b2 3a 18 83 b2 3a
       -0.0013903588 0.0013691831 0.0013596617 0.0013619391
